tf_models/tf_lite/model.tflite (tflite, 144348 bytes, 8 tensors)

actoroutput/bias f4 [6]
000000 33 67 7a 3c 68 b3 b6 3c c7 b6 82 bc 3b 10 fe 3b
       0.015283394 0.022302344 -0.015956296 0.0077533997
000010 b1 5b 23 bc 1f 04 1b 3b
       -0.009970591 0.002365358

actordense3/bias f4 [128]
000000 52 0b b0 3c 13 5b 55 3c 15 29 97 bd e9 06 de bb
       0.021489773 0.013022202 -0.07380883 -0.006775726
000010 23 90 7c bd 75 a3 9e bb 4f 44 37 bc 61 e2 0b 3d
       -0.061660897 -0.004841263 -0.01118572 0.03415144
000020 83 b3 ad bd 55 ac 72 3b bb 64 c7 3a b7 b2 e9 3c
       -0.08481505 0.0037028987 0.0015212515 0.0285276
000030 60 16 53 3b 6d 2e 13 bd 83 19 4e 3d fc 9d b7 3d
       0.0032209381 -0.035932947 0.0503173 0.0896568
000040 fd d3 13 bd 80 78 43 bd 49 0f 94 bb 97 d1 2c bc
       -0.03609084 -0.04772234 -0.0045184237 -0.010548017
000050 71 2b e5 3c 31 a5 bd bc 4c 55 ac bc bc f3 90 3c
       0.027974816 -0.023150058 -0.021036766 0.017694347
000060 8e 21 2b bd 83 de b1 bc ac 1e d6 3c 53 e9 12 3c
       -0.041780047 -0.021712547 0.026137672 0.008966762
000070 a6 c9 13 bc 75 11 ca ba 47 0c 8f 3c 72 9d 55 bc
       -0.009020245 -0.001541658 0.017461909 -0.013038026
000080 20 e9 a1 3d 9c 2c ab 3c bb 66 6f bc 49 af 8b 3d
       0.07905793 0.020895295 -0.014611895 0.06820542
000090 97 e7 ac bc 94 6c 47 bd 1f b9 f4 bb be c8 21 3e
       -0.021106524 -0.048687533 -0.007468357 0.15799233
0000a0 da 7c 7b bd 49 fd 64 3b d4 9c 17 bc 0c 1e f1 3b
       -0.061398365 0.0034941009 -0.009253699 0.007358318
0000b0 47 be e2 bd bb f4 55 3d ed 42 46 3d 24 6a ab 3c
       -0.11071449 0.052235346 0.04840367 0.020924635
0000c0 39 fe f4 3d 31 b2 5c 3d 06 76 5b be 42 29 13 3d
       0.119625516 0.053880874 -0.21431741 0.03592802
0000d0 2e ef 4e 3c 0f a6 2d 3c f3 fb f8 bc 32 39 a1 3d
       0.012630267 0.0105986735 -0.030393576 0.07872237
0000e0 7b 3d 36 3d 84 d9 37 3d 66 26 b6 bb 67 5b a2 3c
       0.044492226 0.044885173 -0.0055587767 0.019818975
0000f0 fc 1e f6 3d 21 b2 98 bc 3d 0b 01 bc c8 ce ca 3d
       0.120176286 -0.018639626 -0.007876215 0.09902722
000100 fc 13 ce 3d a4 9c 2a bd 5c dc 04 bd 3f 3f 82 bd
       0.100624055 -0.04165329 -0.032436714 -0.063597195
000110 6e 13 05 3e 11 5a 51 3d d0 92 85 bc 98 83 5c bc
       0.12995693 0.051111285 -0.016305357 -0.013459109
000120 64 18 a6 3d 3f e8 d5 3d 33 f2 2f 3d 04 18 1a 3d
       0.08110121 0.10444688 0.04295559 0.03762056
000130 f2 85 a0 bd 67 33 0c 3c 03 bf f0 3b 44 3f b5 3d
       -0.07838048 0.008557177 0.007346989 0.088499576
000140 c3 9b da 3d 3f f8 2f be 3d 08 9b 3d f7 93 11 bd
       0.106742404 -0.17184542 0.07569931 -0.0355415
000150 7f f7 e6 3d 49 8b a1 bc 7c fa 5d 3b f1 01 a0 3d
       0.11277675 -0.019719737 0.0033871224 0.0781287
000160 36 e3 77 3b 80 7f 2f 3c 66 da a2 3c 25 e7 0e 3b
       0.0037824637 0.010711551 0.019879531 0.0021805253
000170 b4 d8 2b bd 81 82 03 3d 9d 87 9e bd 26 dd be 3d
       -0.04195471 0.03210688 -0.0774071 0.093195245
000180 0e 48 13 bc e2 9f 95 3d d3 a7 fb 3a fa 41 e1 3c
       -0.008989347 0.07305886 0.0019199796 0.02749728
000190 fb bb 32 bc b1 90 56 3d 97 14 e0 bc d8 7f 51 3b
       -0.010909076 0.052384082 -0.027353568 0.003196707
0001a0 e2 5b 97 3c 96 db 99 39 e5 ef 5f 3d d4 fb 4e 3c
       0.01847643 0.00029346038 0.05467214 0.012633283
0001b0 f2 ae 04 3e d6 9d a0 3d 58 0f 96 3d 0b 08 72 bc
       0.12957361 0.07842605 0.07327145 -0.014772425
0001c0 28 ba 1d 3d c3 e7 78 3d b6 77 2a bc 92 24 0b 3d
       0.03850761 0.0607679 -0.010404518 0.033970423
0001d0 a9 a1 60 bc 5f 60 6c 3d 3d 3e 4a 3d 3f 28 60 bc
       -0.013710418 0.057709094 0.04937576 -0.01368147
0001e0 0a 1f 0a bc d3 26 ea bc c5 d9 cf bc 00 01 1d 3d
       -0.008430252 -0.028582966 -0.025372395 0.03833103
0001f0 57 fc eb 3c a5 27 91 3d 97 fc 9e 3a a4 3d 94 bd
       0.028806848 0.0708764 0.0012129721 -0.072383195

actordense2/bias f4 [128]
000000 d1 e1 d6 bc 01 2d 1c 3d 89 8f c3 3c bc ea 87 3b
       -0.026230725 0.038128857 0.023872154 0.0041478556
000010 c9 10 35 3d a8 43 b1 bd 40 e7 0b bd d2 8d 73 3d
       0.04420546 -0.086554825 -0.034156084 0.059461422
000020 9f be 74 3c 93 e1 80 bd 86 07 96 bd a1 c3 9c bc
       0.014938026 -0.06293025 -0.07325654 -0.019136252
000030 8f 20 d6 bc c3 f5 0e 3e 5a 49 88 3d c8 e3 30 bd
       -0.026138572 0.13960938 0.06654616 -0.04318598
000040 81 9b 08 bc 3a 08 17 3c 88 63 46 be a6 4c f6 3d
       -0.008337856 0.00921827 -0.19373906 0.12026338
000050 0c 39 5e bb 17 b7 6d bc 93 1b 4a 3d 0a 88 1b 3d
       -0.0033908514 -0.014508984 0.049342703 0.037971534
000060 7b c1 a4 bc 27 2d 17 3d 2b 1f 8c bb 59 5e 12 bd
       -0.02011179 0.036908295 -0.0042761764 -0.03573451
000070 64 23 e5 3c 6f 7d d1 3b 2d 5f ad 3d 5b 09 e2 bd
       0.027970977 0.0063931267 0.08465419 -0.11036941
000080 4e 61 c7 3d 85 00 22 bc b0 86 ee ba 4f 5b 8c bd
       0.09735356 -0.009887819 -0.0018198099 -0.06853353
000090 03 20 ef bb b4 29 d2 3d e8 8d f9 bb 38 59 85 bd
       -0.0072975173 0.102618605 -0.0076157935 -0.06511158
0000a0 bd 30 12 bd 2c 6d a8 bc fa c2 61 bd 33 b9 9e 3c
       -0.03569101 -0.02055987 -0.055117585 0.01937542
0000b0 d5 b5 65 3d d0 7c 90 3d 88 76 e2 bc 6a 21 31 bd
       0.05608161 0.07055056 -0.02764441 -0.043244757
0000c0 28 7e 67 3d 06 8a b5 3c 85 03 89 3c 06 03 33 3d
       0.056516796 0.022160541 0.016725311 0.043704055
0000d0 1b ab 90 bb 5a c4 e4 3c 18 b2 90 3c b6 97 b3 3d
       -0.0044149286 0.027925659 0.017663047 0.08769171
0000e0 8d ed 7a bb cc 3b 2e 3d 37 b6 e3 bc 1a c1 f1 3c
       -0.0038288564 0.042537495 -0.027796848 0.029511023
0000f0 2f 35 09 bb b3 e9 3a bd 22 b0 33 3c b7 05 1b 3d
       -0.002093624 -0.04563303 0.010967286 0.037847247
000100 9d 1e 8c 3d 58 e8 ae 3d e0 2c 7b bc d2 d1 6b 3c
       0.068417765 0.0854041 -0.015330523 0.014393287
000110 eb 2a 38 bb 00 00 00 00 6f ee 2a 3e 96 90 19 bc
       -0.0028101753 0.0 0.16692518 -0.009372851
000120 d4 70 29 bd f1 1b 06 3d af 24 c4 bd 40 5c 92 bc
       -0.041367367 0.03274149 -0.09577309 -0.017866254
000130 c1 a3 f7 3d 58 d7 27 3d 40 20 12 3e e6 aa 1e 3e
       0.120917805 0.040976852 0.14270115 0.1549488
000140 c8 19 c9 bb 1e 37 6c 3c e9 b1 da bc ea 29 17 bc
       -0.0061371066 0.014417438 -0.026696162 -0.009226302
000150 8e 6f f8 bc 67 68 71 3d 00 00 00 00 64 51 66 bd
       -0.03032663 0.058937456 0.0 -0.056229964
000160 b1 87 e5 3d 7c 22 5c 3c 79 9c 4d 3c 55 ca 3c ba
       0.11207522 0.013435956 0.012549513 -0.00072017807
000170 95 8a 19 3d 55 b0 97 bb da ba 99 3b 4f ef 45 3c
       0.037485678 -0.0046291747 0.004691464 0.012080981
000180 f7 d2 de 3d 46 f5 88 bc 0a c5 86 bc bb 27 d0 3d
       0.10880082 -0.016718518 -0.016451377 0.10163828
000190 e9 ce 68 3d 11 64 1b 3d 49 ba 0f bb cd 7f 81 3d
       0.05683795 0.037937228 -0.0021931103 0.06323204
0001a0 a4 aa ff 3d 68 7f 67 bc 38 5a 71 b9 7f 33 39 bd
       0.12483719 -0.014129497 -0.0002301716 -0.045215126
0001b0 f6 55 49 bc ee fd 17 3d e5 7d f8 3d 5d 4e ab bc
       -0.012288561 0.0371074 0.121333875 -0.02091139
0001c0 94 ab ab bc b9 b4 b0 3c ab 09 b0 3d 19 fe 89 3d
       -0.020955838 0.02157055 0.08595594 0.067379184
0001d0 94 93 d7 39 61 70 0c bc 27 ff b6 3a 7e 08 99 3d
       0.0004111795 -0.008571715 0.0013961539 0.07472323
0001e0 38 62 b5 bc cf 2d d4 bc 8c d4 01 3c 95 87 fc bc
       -0.02214156 -0.02590075 0.00792421 -0.03082637
0001f0 ec 88 04 bd 62 1a be bd 37 94 a4 3d b0 a3 03 be
       -0.03235714 -0.09282376 0.08036082 -0.1285541

actordense1/bias f4 [128]
000000 fc dd c9 bc a5 e7 ab 3c ad 15 12 3d f5 9f c9 3c
       -0.024641983 0.02098448 0.035665203 0.024612406
000010 f3 0e d0 3d f5 bd e3 3c 09 18 ab 3d 3c cc 19 3c
       0.10159101 0.02780054 0.08354194 0.009387072
000020 08 05 fb 3d ab 02 3b 3d 8d 2f 89 3d 64 a6 4c 3d
       0.12256819 0.04565684 0.06698523 0.04996337
000030 4b e4 97 3d 1a 61 ad 3c 46 9a 6d 3d a4 e2 9b 3d
       0.0741659 0.021164466 0.058008455 0.07611588
000040 d9 50 8b bc dd 03 d4 3d 0a b0 a7 3b 99 93 8b 3d
       -0.017006325 0.10352299 0.005117421 0.068152614
000050 90 07 cf 3d 9a 82 cb bc 00 9e de 3d fe 1d 1c 3e
       0.10108864 -0.02484255 0.1086998 0.15245816
000060 48 07 0c 3e fa 4d 36 3d b4 63 de 3b b6 5b 7e 3d
       0.13674653 0.044507958 0.006786788 0.06209918
000070 c2 99 08 3e 6b 65 9d 3d 71 9e 23 3d 66 94 ae bb
       0.13339904 0.076853596 0.039946023 -0.005327749
000080 07 a4 9a 3c c8 50 08 3c f5 25 aa 3d 0e 51 61 3d
       0.018877042 0.008320041 0.08308021 0.05500894
000090 90 92 82 3e 13 d3 19 be 9e f2 64 3d 49 d4 09 3e
       0.25502443 -0.15021925 0.05589544 0.13459887
0000a0 5a 57 6f 3d df f9 dd ba 4e 62 ef 3c 92 db ea 3d
       0.058432914 -0.0016935429 0.02922168 0.11467661
0000b0 19 40 51 3d 09 58 fc 3d d7 46 3d 3d 29 d1 17 3e
       0.05108652 0.12321479 0.046210136 0.14825882
0000c0 f1 20 35 3d 8b 3b 8d bc e7 8b d6 3d fd b0 99 3d
       0.04422087 -0.017240306 0.10475903 0.07504461
0000d0 e4 9a 01 3e 60 28 4e 3d 81 66 b1 3d 2b 9a 43 bc
       0.12656742 0.050331473 0.08662129 -0.011938612
0000e0 76 f6 c2 3d fd 7e 7b bd 90 10 f6 3d bc 44 0e 3b
       0.09519665 -0.061400402 0.12014878 0.002170845
0000f0 a4 da a4 bb 70 05 a8 bc 27 20 e3 3d d5 9c 8d 3d
       -0.005030947 -0.020510405 0.11090117 0.06914679
000100 bc 92 99 3d 34 1c 40 3e 49 b5 ae 3d 81 d6 09 bd
       0.074986905 0.18760759 0.08530671 -0.033651832
000110 5e 94 1d 3d 96 3b 3c 3b 4a 1e 32 bc dc 2e e0 3d
       0.038471572 0.002872204 -0.010871479 0.10946438
000120 9c 33 be 3c ce ce 8a 3c 24 e7 82 bb 20 aa 23 3e
       0.023217969 0.016944315 -0.0039948393 0.15982866
000130 94 20 27 3e 1b 42 35 3e a4 f9 ae bd e5 ca 26 3e
       0.16321021 0.17700998 -0.08543709 0.16288336
000140 ee d8 85 bb 0d 09 fe bc c7 07 fb 3d 81 c9 33 bc
       -0.004084698 -0.031010175 0.12257343 -0.010973335
000150 b6 6e d3 3d b0 a6 aa 3d 15 a1 e0 3d b7 39 48 3d
       0.10323851 0.08332574 0.10968224 0.048883166
000160 df 44 90 bc 82 57 c6 3d 44 58 10 3e 31 11 43 bd
       -0.017610965 0.096846595 0.1409617 -0.047623817
000170 d5 a1 22 3e dc 70 d2 bc 50 5e 78 3c 6d cb d2 bc
       0.15882047 -0.025688581 0.015159205 -0.025731767
000180 27 72 55 3d 18 b3 c7 3d 58 32 5e 3e 48 58 7e 3d
       0.052110817 0.09750956 0.21698892 0.06209591
000190 42 e8 57 3d e4 e6 06 3d 91 63 43 3d c4 4e 1c 3e
       0.052711733 0.03293504 0.047702376 0.15264422
0001a0 ee ff c6 3c 1b c7 91 bd d2 e0 36 3c 60 f4 b8 bc
       0.024291959 -0.071180545 0.011162 -0.022577465
0001b0 8f 8f 88 3d 03 e7 76 bd c1 0e 06 3e 1b 28 21 be
       0.06668007 -0.060278904 0.13091566 -0.15737955
0001c0 a6 f5 ac 3d 9c 9d c5 3c 5e c7 a7 3c fc e8 bd 3d
       0.08445291 0.024123006 0.020480808 0.09272954
0001d0 eb 7e b3 3b a8 87 fd 3d c8 a7 d0 3d 08 3c 4d 3d
       0.0054777763 0.1237939 0.10188252 0.05010608
0001e0 4a a1 fc 3b fd 8f 7d 3d 59 a4 b6 3d cb 55 86 be
       0.007709657 0.061904896 0.089180656 -0.2623733
0001f0 4a b2 51 3e 36 8a e9 bb af b5 e6 3d ed ff 30 3d
       0.20478168 -0.0071270717 0.11265122 0.04321282

actor/actordense1/MatMul f4 [128, 12]
000000 d9 63 38 be c6 8d ef bd b9 b2 0e 3d 5c f1 d0 bc
       -0.18006839 -0.11696963 0.034838412 -0.025505714
000010 5a cb 99 be e3 2d be bc 19 a6 87 be 03 0a 3e bc
       -0.30037957 -0.02321524 -0.2649391 -0.011599067
000020 3b 5d 5e 3d e0 a2 24 be ae dc 75 be fd 87 16 3e
       0.05428813 -0.16077757 -0.24009964 0.14700313
000030 a1 bf 49 3e ec 06 7a 3d d4 52 d9 3d 02 4e 08 3e
       0.19702007 0.061041757 0.10611501 0.13311008
000040 64 67 c1 bd 14 a8 8d 3e 59 ae 81 3d 9a 85 3e 3d
       -0.09443548 0.27667296 0.06332082 0.04651413
000050 7b ce 4b 3c 8b e1 bc be 81 5f 85 3d 58 c5 51 3e
       0.0124393655 -0.36890826 0.065123565 0.20485437
000060 26 f0 e3 3d c2 7f d2 3d 50 11 ee 3c 50 2d 7e bd
       0.11129789 0.10278274 0.02906099 -0.062054932
000070 f6 07 63 3e 7f 29 20 bd db 5d ca bd 40 8c 48 bb
       0.22171006 -0.039102074 -0.09881183 -0.0030601174
000080 d2 b0 1d 3d d1 71 28 3c 3d 4e e0 be 44 11 e8 3d
       0.038498707 0.010281042 -0.4380969 0.11331418
000090 f4 ac 68 3d b0 c3 3b bd 94 d9 36 3e d1 9f e2 be
       0.056805566 -0.04584092 0.17856437 -0.44262555
0000a0 9e 62 c6 3d 6d 42 16 be a5 ff 8a be 0f 05 18 3e
       0.096867785 -0.14673777 -0.27148166 0.1484568
0000b0 7c b9 63 3e 57 fc 0a 3e 51 fd 4d be c6 6b 58 be
       0.22238725 0.13572823 -0.20116164 -0.21134862
0000c0 ae ba b9 3d 9e ff d2 3d 02 50 a5 bb 43 d8 dd be
       0.090688094 0.10302661 -0.005044938 -0.43329057
0000d0 37 4c 1f be 9e a4 f6 be 00 35 94 be bb 21 f7 3e
       -0.15556417 -0.48172468 -0.28946686 0.48267922
0000e0 9a a8 d8 3e 39 02 30 bd 87 d3 0b be 73 55 2b be
       0.42316133 -0.04297087 -0.1365491 -0.16731815
0000f0 a9 07 41 be 8f a3 28 3e 36 e5 77 be df 02 a3 3e
       -0.18850578 0.16468643 -0.24208531 0.31838128
000100 0c af ba 3e c1 76 0d 3f ce cd 4e 3e df 86 85 be
       0.36461675 0.5525933 0.20195696 -0.2607946
000110 85 41 c3 3e ba 8b 85 3c 83 c4 9e 3e f6 51 92 be
       0.38135925 0.016301978 0.31009302 -0.28578156
000120 50 e3 1b be f0 b4 1a 3d 87 3d 8e 3d 46 bf aa be
       -0.15223432 0.03777021 0.06945329 -0.33349055
000130 14 9e 8f 3d 51 42 e9 bd 19 d7 0b 3e b0 ef 1d 3e
       0.07012573 -0.11389602 0.13656272 0.15423465
000140 15 fe b5 bd 17 fa 84 3e d5 a5 64 3e de 64 83 3d
       -0.08886353 0.25972053 0.22328885 0.06415723
000150 bf bb 3d 3e 1b 17 13 3e 6d 51 a3 3d af f5 9a be
       0.1852865 0.14364283 0.07974515 -0.30265567
000160 37 6a 6a 3d 26 f6 a9 3d 63 b8 88 3c 7e ec c4 3d
       0.0572302 0.08298902 0.016689485 0.0961542
000170 8e 19 d2 be 77 0e 24 be 56 ec 79 3e d4 b5 02 3e
       -0.41035122 -0.16021143 0.24406561 0.12764674
000180 14 94 a0 bd 22 04 dc 3d 44 9a b3 be b6 ca f2 3e
       -0.07840744 0.10742976 -0.35078633 0.4742028
000190 f3 11 8b bc 7e a1 be 3e a9 6b 75 3d f2 31 97 be
       -0.016976332 0.37232584 0.059917126 -0.29530293
0001a0 1d 1c 2f be 27 63 19 be f5 f4 38 3e 92 4b c0 3e
       -0.17100568 -0.1497923 0.18062194 0.37557656
0001b0 55 42 1c 3e 68 bf 2f be 08 53 31 3e 5c 0e 97 be
       0.15259679 -0.1716286 0.1731683 -0.29503143
0001c0 55 62 9b bd 25 75 b9 be e0 a2 28 be 8b 9a 1d bd
       -0.07587115 -0.36222187 -0.16468382 -0.03847746
0001d0 93 7a 7c be 4e e7 07 be 45 67 4c be 72 e7 15 be
       -0.24656133 -0.1327183 -0.19961269 -0.1463907
0001e0 bd 7e 24 3e 85 3e 38 be ab 69 ce be d2 3f 1c 3f
       0.16063972 -0.179926 -0.40314993 0.6103488
0001f0 7c 89 b4 3d 9d bd 1d 3f 51 2e 0f bd c6 01 44 be
       0.088152856 0.6161745 -0.03495628 -0.19141302
000200 d9 77 fe bd 57 21 48 be f7 6e cb be 60 7d 00 3e
       -0.12425203 -0.19543968 -0.39733097 0.12547827
000210 97 08 3c 3e 18 74 e9 bc 0a 1e f5 3d 04 88 57 3e
       0.18362652 -0.02849774 0.1196862 0.2104798
000220 d9 18 0e bf a7 71 b5 3d 91 66 e4 ba 3b 6f 31 be
       -0.55506665 0.08859568 -0.0017425587 -0.17327587
000230 5e 23 52 be f7 e2 cc be a4 98 45 be a4 75 d9 3e
       -0.20521304 -0.4001691 -0.19296509 0.42472565
000240 7d 78 4d 3e 49 9f 10 3e 06 81 43 be 52 8e e2 3e
       0.20065494 0.14123262 -0.19092187 0.44249207
000250 d8 f7 1d be b9 8a 00 3e 5c 6e fb 3d 58 d9 b0 be
       -0.15426576 0.12552918 0.12276909 -0.3454082
000260 a7 17 f0 be 23 22 00 be 75 b0 fc 3d 35 56 c7 3e
       -0.46893045 -0.12513022 0.12338344 0.38932958
000270 1e 62 f2 3d fa 7a a0 3d 0a 73 a1 3e 7d 03 ed bd
       0.118351206 0.07835956 0.3153308 -0.11572931
000280 bb c6 f6 bd e2 13 75 be b4 0d 7a be c9 32 90 3e
       -0.120496236 -0.23933366 -0.2441929 0.28163746
000290 44 84 52 3d 28 9c 50 be a8 11 af 3d c4 4d 55 be
       0.05139567 -0.20372069 0.085482895 -0.20830446
0002a0 57 c5 0e 3e df 22 33 3e 5d 43 99 3e 53 3c f4 be
       0.13942467 0.17493771 0.29934207 -0.47702274
0002b0 91 64 94 bd e1 f9 25 3d 27 49 6a 3e 1f 14 bd 3e
       -0.07245744 0.040521506 0.22879468 0.36929414
0002c0 d2 c8 82 3e 56 63 1f 3e e7 d5 ac be 57 9d 2e 3d
       0.2554384 0.15565237 -0.33756945 0.04263052
0002d0 fd 31 20 3e a2 c7 d8 bd 06 5d 49 be d9 17 67 be
       0.15644069 -0.10584952 -0.19664392 -0.22567691
0002e0 32 b8 17 3e c1 dd 8b bc 47 6b 2c bd b6 2d a7 bd
       0.14816359 -0.017073514 -0.042094495 -0.081630155
0002f0 c0 28 91 be b3 54 b5 3d bc b2 b1 bc b7 3e 9f be
       -0.28351402 0.08854046 -0.021691673 -0.31102535
000300 d7 a2 4b 3e de 8e df 3d 29 fc 38 bd 24 9f 93 3e
       0.19886337 0.10915922 -0.045162354 0.28832352
000310 61 c4 19 be 06 b3 2c 3e 4d 80 19 bd d9 68 9f be
       -0.15016319 0.16865167 -0.037475873 -0.3113468
000320 90 77 e3 3c c4 ba 2d 3e c7 21 86 3c df 90 d4 3e
       0.027766973 0.16965777 0.016373528 0.41516778
000330 b9 e5 08 3e f0 6e 6b bd c6 ef 8a be 07 09 b0 3e
       0.13368882 -0.057478845 -0.27136058 0.34381887
000340 68 d3 25 3d 58 91 12 3f 0f 9d 06 3e 3e aa 74 be
       0.040484816 0.57253027 0.1314585 -0.23893067
000350 eb d2 a0 be ef 02 83 be 0d bf a0 3e 87 f2 a4 3c
       -0.31410918 -0.25588176 0.3139576 0.020135177
000360 e6 e4 c6 3d 64 1f 1b 3d 17 49 a2 3d c8 4b de 3e
       0.09711628 0.037871733 0.07924097 0.43417192
000370 1e bd a5 3e 08 9f de 3e 75 bf e7 3c f1 18 98 be
       0.32370847 0.43480706 0.028289536 -0.2970653
000380 43 0a d7 3e cd a3 3e 3e 54 44 5c 3e c9 d6 33 3e
       0.42000017 0.18617173 0.2151044 0.17562403
000390 29 64 4a 3e e7 ad 4f 3e 9b 4f 4c 3d 3d 8d 4a 3e
       0.1976477 0.20281182 0.049880605 0.1978044
0003a0 b2 df 0e be e7 6a eb 3e f3 90 58 be b9 d1 e1 bd
       -0.1395252 0.45979998 -0.21149044 -0.110263295
0003b0 81 1d 85 3e 1c 10 21 3e 0d e0 34 be 37 06 e0 bd
       0.25999072 0.15728801 -0.17663594 -0.109386854
0003c0 62 a4 11 be 97 79 46 be 7a dd 58 3e 43 ef df be
       -0.14222863 -0.1938232 0.21178237 -0.4373723
0003d0 10 2f ad bd 39 65 9d be 33 ab 30 be 22 0e b1 3e
       -0.08456242 -0.3074129 -0.17252807 0.34581095
0003e0 f8 55 20 be 4f 71 ef 3d 78 12 06 bf f8 17 9f 3d
       -0.15657794 0.11691534 -0.5237193 0.077682436
0003f0 46 1f d7 3d 8a 42 e8 3d 34 ff 75 be 1b 99 6f 3e
       0.10504012 0.11340816 -0.24023134 0.23398249

actor/actordense2/MatMul f4 [128, 128]
000000 53 25 06 be 79 e3 da 3d 7d ce bf bc 3f ef e7 3d
       -0.13100176 0.10687918 -0.023413891 0.113249294
000010 a6 99 5e 3e 86 e9 cb bb 43 8a 7b 3d dc fd d0 bd
       0.217383 -0.0062229065 0.061411154 -0.1020467
000020 80 8a 65 3b 44 15 a6 3d b9 d1 79 bd 3c 7d 14 3e
       0.003502518 0.08109525 -0.060991023 0.14500898
000030 b5 e0 44 3d 89 63 15 3e ad 9c dc bd 26 9e 05 3e
       0.04806586 0.14588751 -0.10772071 0.1304861
000040 db 78 0f be fd 6f ef 3d 8e 68 ad 3c 94 64 f2 bd
       -0.14010946 0.11691282 0.02116802 -0.1183559
000050 65 42 ce 3d 15 01 23 3e 07 05 92 bd 9a 86 a1 bd
       0.100712575 0.15918382 -0.07129865 -0.07887001
000060 dc b4 85 be b6 0e 57 3e 19 44 15 be 30 19 11 bc
       -0.26114547 0.21001706 -0.14576758 -0.008856103
000070 18 59 1a 3e 2f 11 59 bd 2e e6 03 3e a7 c9 83 bd
       0.15073049 -0.052994903 0.12880775 -0.064349465
000080 4b 19 7f bd 38 7e 90 3d 61 a6 54 3d 55 a6 c1 3d
       -0.06227998 0.07055324 0.051916484 0.094555534
000090 95 09 8d 3d dc 9f 5c bd b6 38 ec 3b e5 01 dc bc
       0.06886593 -0.05386339 0.007208909 -0.026856372
0000a0 d0 8c 9d 3d ca 8c d2 3d 2c cf 29 3d af e4 94 bd
       0.076928735 0.1028076 0.04145734 -0.072701804
0000b0 60 64 02 3e 79 d3 9c bc a2 9c 1c be f1 11 7f 3d
       0.12733603 -0.019143807 -0.15294126 0.06227297
0000c0 12 33 d7 3d 11 6f 40 3b 4b 36 1a be 6d 6e 07 3e
       0.10507788 0.0029363076 -0.15059774 0.13225718
0000d0 25 d6 b4 bd 02 9c 1c 3d 14 90 9a be 58 f7 36 be
       -0.08829907 0.03823472 -0.30188048 -0.17867792
0000e0 de 5c f9 3d bc f5 16 be f2 8d 9f bd e8 09 1d 3d
       0.12175916 -0.14742178 -0.07790746 0.038339525
0000f0 de a0 a5 3d c3 4a 82 bd fe 86 9a 3c d6 77 12 be
       0.080873236 -0.06361916 0.018863197 -0.14303526
000100 41 0f 49 be 27 54 70 3e 25 e8 f5 3c 24 2d 9c bb
       -0.19634725 0.23469602 0.030017922 -0.0047661234
000110 29 db 2a be 54 ae 14 3e 74 62 af 3d 61 94 4a 3d
       -0.16685165 0.14519626 0.085637 0.04945791
000120 13 55 4f 3d 46 f9 18 3e dc 16 bc 3d b3 61 6e 3d
       0.050618242 0.1493884 0.091840476 0.058198642
000130 e8 59 ea 3c a9 04 1a be cc ce 0c 3e e2 c2 60 bd
       0.028607324 -0.1504084 0.13750762 -0.054873355
000140 02 77 62 3d 9f 7f 40 3d ce 6d 4c 3d d4 e0 66 3d
       0.055289276 0.04699671 0.049909405 0.056366757
000150 7b 27 81 bd ee 0a 72 bd d3 b9 2d be be 65 c1 3d
       -0.063063584 -0.059092455 -0.16965418 0.09443234
000160 d6 ff 72 bd 87 95 02 3e 02 e0 0c be 01 1d 27 be
       -0.059326015 0.12752353 -0.13757327 -0.16319658
000170 a2 f7 19 3e 8f 75 e4 bc 36 72 17 3e 95 cc 21 3e
       0.1503587 -0.027888088 0.14789662 0.15800698
000180 c9 6c 86 bd 08 eb 0d 3e 42 4a 23 3e 00 e7 2d 3e
       -0.06563718 0.13859189 0.15946296 0.16982651
000190 c0 c7 d0 bd 42 ba 95 3d 24 5d c4 ba 61 94 b9 bd
       -0.10194349 0.073109165 -0.0014981371 -0.09061504
0001a0 c2 bc 0a be 5b e0 fc 3a cd e2 b7 3c f2 58 42 be
       -0.13548568 0.0019292937 0.022447014 -0.18979242
0001b0 29 07 98 3c ce 11 28 bd 09 2b 5f 3e 50 b9 1d 3c
       0.018558102 -0.041032605 0.2179376 0.0096267015
0001c0 29 4d ae bd f2 14 4f 3d 93 18 30 3e 4a b7 08 bd
       -0.08510811 0.050557084 0.17196874 -0.033377923
0001d0 4a da 20 3d b4 31 27 3e 8a 56 07 3d 7f 0e 3b 3d
       0.039270677 0.16327554 0.033041514 0.04566812
0001e0 df ae 12 be 22 78 a3 3d f1 a0 36 be fa 0d 05 bd
       -0.1432452 0.07981898 -0.17834832 -0.032484032
0001f0 11 04 33 3e 71 d0 c5 bd d5 cd a4 bd fa b5 a2 bd
       0.1748202 -0.09658898 -0.08047072 -0.079448655
000200 ee d5 c8 bd 83 58 ef 3d e2 6d 0f bd 6c d1 1f 3e
       -0.09806429 0.11686804 -0.0350169 0.15607232
000210 26 98 62 3d cc a7 87 bd f3 78 fb ba da 18 a3 3d
       0.05532088 -0.066238016 -0.0019185826 0.079637244
000220 0d 76 69 3e 5a 77 30 be e1 21 a5 bd ca b8 22 3d
       0.22798939 -0.17233029 -0.080631025 0.03972701
000230 65 dc 99 3e 9b 1e d8 3d cd d3 6a bd ad 25 4d 3e
       0.3005096 0.105527125 -0.057330895 0.20033903
000240 10 53 d5 bc db cf 72 3e fe 78 a4 bd 15 bd bb bc
       -0.026040584 0.23712103 -0.0803089 -0.02291731
000250 80 3b 93 bd 2f 6b 95 3b 78 5f a2 bc 6f 9c 7c bc
       -0.07189083 0.0045598964 -0.019820914 -0.015418156
000260 f7 23 99 bd 10 04 5e 3e 7f f9 31 3d 46 ad e5 3d
       -0.07477563 0.21681237 0.04345083 0.1121469
000270 2c 10 c2 3d 62 78 36 3e ff 41 1c bd 89 53 f6 3d
       0.09475741 0.1781936 -0.038148876 0.12027652
000280 7f 28 b7 3d 4a 53 f8 bb 66 e5 4d 3d 77 4c 6c 3e
       0.08943271 -0.007578288 0.0502676 0.23076044
000290 f1 7e d1 3d 68 e3 c9 bd 27 c7 4f 3e 34 b6 fe 3d
       0.1022929 -0.098578274 0.20290814 0.12437096
0002a0 c0 3b ff bd d1 fa ae bd 4d 8d 94 3d 24 1a a0 3d
       -0.12462568 -0.08543933 0.072535135 0.07817486
0002b0 8e f5 b2 bd f7 39 9a 3d fa ec e5 bc 2d 12 af 3d
       -0.08738242 0.07530587 -0.0280671 0.08548389
0002c0 6d b1 51 bd c3 71 5e bc a2 b6 da 3d f2 be bc 3c
       -0.051194597 -0.013576928 0.10679366 0.023040269
0002d0 45 7d 08 3c 7b ff 3f 3e ce 1d 49 3e 6d 9f ea 3c
       0.008330648 0.18749802 0.19640276 0.028640473
0002e0 93 52 56 be a9 16 16 be da 33 69 3c 02 bb 94 3c
       -0.20929937 -0.14657082 0.014233554 0.018155579
0002f0 5d d6 21 be f1 37 21 3e 04 6f d3 bd 90 1b 38 3d
       -0.1580443 0.15743996 -0.10323909 0.04494816
000300 16 d7 07 3c 9b ff 91 3d e7 00 a5 3d 20 bb 98 bd
       0.008291027 0.07128831 0.08056813 -0.07457566
000310 6e 13 b2 bd fe 6a 01 be 11 47 e2 bd b8 72 98 3e
       -0.08695112 -0.1263847 -0.11048711 0.29775023
000320 25 bb 4e be 2b 80 18 3d be 18 25 be f6 55 11 be
       -0.20188577 0.037231605 -0.1612272 -0.14192948
000330 3e 45 31 3e 82 18 30 be a1 41 7a bd 5d a0 9c bd
       0.1731157 -0.17196849 -0.061097745 -0.07647774
000340 8a 8c c0 be 35 a8 26 3e 96 bb 7d bd 06 5e d8 3d
       -0.37607223 0.16275103 -0.061946474 0.105648085
000350 ae 1a 81 3d 20 3d a7 be 09 0a 58 3e 59 74 a1 3d
       0.06303917 -0.32663822 0.21097578 0.0788352
000360 03 ea 13 bd cc 27 df 3d 57 ad 7b bd 87 e9 0d bd
       -0.036111843 0.108962625 -0.061444607 -0.034646537
000370 d5 ec c9 bd 4c b1 b7 bd 3d bf a6 bd c0 22 ce 3d
       -0.09859625 -0.089693636 -0.081419446 0.10065222
000380 a3 bb 9e be 4b f4 a7 be c4 0c 82 3d b0 b4 c8 3d
       -0.3100253 -0.32803568 0.06350091 0.098000884
000390 f6 44 c1 bd c8 ea c0 bc a0 07 4a 3e 36 86 a7 bd
       -0.094369814 -0.023549452 0.19729471 -0.081798956
0003a0 8b 11 95 bd a3 a0 8c bb 4c 76 2d 3e af 6a 29 3e
       -0.07278737 -0.0042916103 0.16939658 0.16544603
0003b0 c3 f3 5b 3d d5 ff 26 be a4 e4 65 3c 88 96 88 3d
       0.053699266 -0.1630853 0.014031563 0.066693366
0003c0 c6 99 ed bc 39 f8 6a 3d bf 34 3b 3b d4 31 6a 3d
       -0.029003989 0.05736563 0.0028565375 0.057176426
0003d0 03 fb a6 bd be e1 66 3d a1 1c 3d be ed cd 0d be
       -0.081533454 0.05636763 -0.18467952 -0.13848086
0003e0 e1 b5 9d 3d 54 80 35 39 44 c4 d8 3d 00 ff 96 bd
       0.07700706 0.00017309311 0.1058431 -0.07372856
0003f0 b1 d1 b6 3d 36 10 60 bd 4d c0 c7 3d 86 f1 81 3d
       0.08926714 -0.05470296 0.09753475 0.06344895

actor/actordense3/MatMul f4 [128, 128]
000000 a4 66 ff 3d d6 ec 87 bd 24 36 88 3d 09 a1 8e 3d
       0.12470749 -0.0663697 0.066509515 0.06964309
000010 f7 b3 1c bd 44 c4 1a 3e 97 b8 1f 3e 40 96 4d bc
       -0.038257565 0.15113932 0.15597759 -0.012548029
000020 77 93 67 be 25 68 12 3e 09 5f 64 3e 1e 52 df bb
       -0.22614847 0.1429754 0.22301878 -0.006815209
000030 16 ae 33 3e c6 29 a8 3d e9 c0 44 3e 72 14 cf 3d
       0.17546877 0.08211093 0.19214214 0.101113215
000040 be 91 da 3d 4e ff 73 be c4 19 7b 3d e9 e3 02 3e
       0.10672329 -0.2382786 0.06130387 0.12782253
000050 32 c8 d9 bd e3 a1 7c 3d bc 63 4e 3e 54 11 0b 3e
       -0.10633887 0.061677825 0.20155233 0.13580829
000060 69 c1 f2 bc 20 43 0d 3d a7 28 f9 bc bf 03 fb bd
       -0.02963324 0.034487844 -0.030414892 -0.12256574
000070 29 2d 03 be 92 e6 1b 3e 43 9a 91 bd 9c c0 b1 bd
       -0.12810196 0.15224674 -0.07109501 -0.086793154
000080 03 8d 83 be 6e f1 fa 3c b0 4c 34 3d 46 22 89 bc
       -0.2569352 0.0306327 0.044018447 -0.016739976
000090 ef c2 7e 3e 23 cc fd 3d a1 c4 03 be 4f 93 09 be
       0.24879049 0.123924516 -0.12867977 -0.134351
0000a0 78 65 ec 3d 05 1c 8c bd 4e 3e 6d be 55 10 aa 3c
       0.11542791 -0.06841282 -0.23168299 0.02075974
0000b0 cd d2 02 3e 07 05 85 be fe 1b c3 3d c4 d2 c5 3d
       0.12775727 -0.25980398 0.095268235 0.09659341
0000c0 34 c6 ef bd cc ef 63 3d cc d5 f3 bc 0c 38 0f bf
       -0.11707726 0.05564861 -0.029765032 -0.55944896
0000d0 27 3f 8b 3d 5e 57 d0 bb 09 25 37 be 3d 9c 27 3d
       0.06799155 -0.006358071 -0.17885222 0.040920485
0000e0 53 41 16 3e 45 42 7e bd 71 19 f0 bc 41 fe 88 3d
       0.14673357 -0.06207492 -0.029309006 0.0668912
0000f0 6a 13 e9 bd eb e6 a8 bc bd cd f2 bc 57 48 c9 3d
       -0.11380656 -0.020617923 -0.02963912 0.09828251
000100 80 76 7b 3b 0e cd 45 3e 9f 53 fc 3d e3 be 76 bd
       0.0038370192 0.19316503 0.12320637 -0.060240638
000110 d2 20 8b 3d 96 ac ce 3d 1a 44 3f be 69 37 a5 bd
       0.06793369 0.10091512 -0.18678322 -0.08067209
000120 c1 41 09 be 96 c2 aa be f0 17 d3 3d 69 a9 e0 3d
       -0.1340399 -0.33351582 0.103073 0.109698124
000130 61 cd 13 3e df b3 c5 bd 79 78 0c bd 5e ae eb 3d
       0.14433815 -0.09653448 -0.03429458 0.11507867
000140 27 a4 03 be 7d 60 fe bd 83 17 8f bd 14 1f bf bd
       -0.12855588 -0.124207474 -0.069869064 -0.093320996
000150 84 84 5b be 64 d3 f7 3d 0b 29 b2 bd 4a bd 03 3e
       -0.2143727 0.121008664 -0.086992346 0.12865177
000160 ff 16 40 be ca 1d 16 3e 01 df 2f 3c 1d cf 3a be
       -0.18758772 0.14659801 0.010734321 -0.1824307
000170 26 3a 05 3b 89 9e 81 3d 4b 79 10 bd 19 49 5c 3c
       0.0020328849 0.06329066 -0.035271924 0.013445162
000180 34 4b f0 3d c1 c9 9a bd b8 55 88 bc 4d 29 3a 3e
       0.11733094 -0.07558013 -0.016642436 0.18179817
000190 d6 a3 86 bc 44 44 cd bd 4b ad d3 3d 3a 1d 80 bc
       -0.016435545 -0.10022786 0.103357874 -0.015638936
0001a0 d5 5f 27 3e bf d5 eb 3d df 8d ec 3d ce 34 d7 bc
       0.16345151 0.11515378 0.11550497 -0.026270296
0001b0 94 a7 a4 bd cb 13 a7 3d ec ff 09 be 80 9d 92 3d
       -0.080397755 0.08158072 -0.13476533 0.07158947
0001c0 43 45 03 3e af ca f6 bd 7a 45 67 3d 85 e7 ab be
       0.1281939 -0.120503776 0.056462742 -0.33575073
0001d0 53 12 10 3e 0c 76 e3 3d 93 ae 5f 3d b9 0b b6 3d
       0.1406949 0.111065 0.054609846 0.08888955
0001e0 ff 5d 05 be df a0 43 3e 1a 7d a3 3d 8a 3c 1a bd
       -0.13024138 0.19104336 0.079828456 -0.03765539
0001f0 ac 97 3e 3d c9 b1 59 3d 48 85 68 bd 53 6c 07 be
       0.046531364 0.053148065 -0.056767732 -0.13224916
000200 d7 7e 23 3e 8a 0a 96 38 4e c4 37 be 5b 8c 69 3d
       0.15966354 7.1545204e-05 -0.17945978 0.05701862
000210 5b dd 54 be 69 28 80 bd f3 93 bc be 8b 42 16 be
       -0.20787565 -0.062577076 -0.36831626 -0.14673822
000220 51 f3 03 3e ea 60 23 be a6 66 ce bd e8 15 31 be
       0.12885787 -0.15954939 -0.100781724 -0.17293513
000230 99 d3 17 3d a5 d7 9c bd e8 a2 b1 3d d6 08 8e be
       0.03706703 -0.076583184 0.0867365 -0.27741116
000240 2e 9e f4 3d ff d0 0b 3e be c9 98 3c e5 73 b1 3d
       0.11944233 0.13653944 0.018650886 0.08664683
000250 68 5e 74 3c ff b3 04 be cd 31 0d be a8 67 24 3e
       0.014915086 -0.12959288 -0.13788529 0.16055167
000260 35 19 19 bc d2 de 3b be dd 1b 43 3d 88 f3 3a be
       -0.009344389 -0.18346718 0.047633994 -0.18256962
000270 a2 a3 81 be 30 10 83 be 4f ef ef bd 1e 51 2c 3e
       -0.25320154 -0.25598288 -0.11715566 0.16827819
000280 91 b4 a8 3d 91 72 eb 3d db 1a eb bd fd 9b 95 bd
       0.08237565 0.11496461 -0.11479732 -0.07305143
000290 b3 47 79 bd 49 5e 7b 3d d0 be 47 3d cb 50 65 3d
       -0.060859393 0.061369214 0.048765957 0.055985253
0002a0 7b f3 ad bd 22 65 87 3d 3e 6e 25 bd 77 39 90 bd
       -0.08493706 0.066110864 -0.04038834 -0.070422105
0002b0 bf 17 14 bd 07 b1 ed 3d c0 2b 9c be 62 26 cc 3d
       -0.03615546 0.11606031 -0.3050213 0.099682584
0002c0 6c 40 60 be c3 34 ad 3d 9e 4c d6 bd ca c1 81 be
       -0.21899575 0.08457329 -0.10463832 -0.25343162
0002d0 4c c2 1c be 53 ed 50 3e 3f ee 25 3e 2b 7e 7f bd
       -0.15308493 0.20403032 0.16204165 -0.062376183
0002e0 fe 0e ce be 96 ae 5f be ee ca 3a 3d ef 7f 6f bd
       -0.40245813 -0.21843943 0.045603685 -0.058471616
0002f0 8c 98 cb bd bd 2b b2 3d 2a d9 00 bd 8e 8b fb 3d
       -0.099412054 0.08699749 -0.031457104 0.12282477
000300 d4 69 5b bc 2c 40 d6 3d 43 cf 2e 3e 30 1d ac bd
       -0.013391931 0.104614586 0.17071252 -0.084040046
000310 9d 46 52 be 4a 51 6e bd 6a 7c dc 3d 68 f7 d0 bd
       -0.2053475 -0.058182992 0.107659176 -0.10203439
000320 57 9b 0e bc 5b b8 94 3e c6 92 7b bd ae 20 13 bd
       -0.008704028 0.29046902 -0.06141927 -0.035919838
000330 ca c2 e0 3d 89 f2 04 be d5 e3 07 3d bc 6b cc bc
       0.10974653 -0.12983145 0.033176262 -0.024953716
000340 6a 58 36 bd d8 5f 17 be 03 f6 3f be 07 5a 2b be
       -0.044517912 -0.14782655 -0.1874619 -0.16733561
000350 69 df 94 bd c7 e4 a7 bd 80 35 e1 bc 8d 42 b2 bc
       -0.072691746 -0.08197933 -0.027491331 -0.02176025
000360 b5 8a e9 bd d5 fb 00 3e 41 23 2c 3d cc c4 1b bd
       -0.114034094 0.12596066 0.04202581 -0.038029477
000370 69 eb 80 3d ac f9 46 3d 50 5b ea bd cd f8 9b bd
       0.06294901 0.04857795 -0.11443198 -0.07615814
000380 8f 9c 9f bc 92 4d a3 bd 8c 6c 37 bd 28 d0 b5 3d
       -0.019483833 -0.0797378 -0.044781253 0.08877593
000390 a4 16 ca 3d 18 47 4d 3e 46 10 3c 3d b5 e0 a5 3e
       0.098675996 0.20046651 0.045913957 0.32398
0003a0 73 f8 06 bf 67 fe d8 3d ea f9 a4 be 5f 14 38 bc
       -0.52722853 0.105953984 -0.3222192 -0.011235326
0003b0 14 8a c7 3c 83 ac 61 bd 2f 77 8b 3d 84 85 b1 bd
       0.024357833 -0.05509616 0.06809842 -0.08668044
0003c0 05 dc e3 bd 41 ff 08 be f8 9b 9f 3d 45 bf 87 3d
       -0.1112595 -0.13378622 0.077934206 0.06628279
0003d0 74 d7 2a be b6 c6 04 be e2 de ba bd dc 8e c1 bd
       -0.16683751 -0.12966427 -0.09124543 -0.094510764
0003e0 15 0b ca be ff d8 3d 3d 8f 07 35 3d 8f 8f 84 3d
       -0.3946158 0.04634952 0.04419666 0.06472694
0003f0 e1 87 cf 3d a6 24 ed 3d 2a 71 52 be dc d3 99 3d
       0.10133339 0.11579256 -0.20550981 0.07511112

actor/actoroutput/MatMul f4 [6, 128]
000000 97 db 9c 3b b4 5c c7 be 03 1e a7 be 03 ff 31 3f
       0.0047869193 -0.38937914 -0.32640085 0.6952974
000010 ab 1b 97 bd 05 70 e7 bd 7f 9e e8 3d b1 42 a9 be
       -0.07378324 -0.11300663 0.11358356 -0.33058694
000020 08 ac 1d 3e 0c e9 c0 3d 4f 90 7d 3e a6 80 c5 3d
       0.15397656 0.0941945 0.2476208 0.09643678
000030 ea db ec 3c ab fa e1 bc db d1 01 be 0e 8e 87 3e
       0.028913457 -0.027585348 -0.1267771 0.26475567
000040 03 b4 09 be 2e d2 8e be 00 e3 86 be 00 e0 33 3e
       -0.13447575 -0.2789473 -0.26345062 0.17565918
000050 54 45 3b 3e de 43 23 3e aa 8b da 3e 35 3e c5 bd
       0.18288165 0.15943858 0.4268468 -0.09631006
000060 79 5a a6 3e e7 ef 5e 3d 34 db a2 bc 46 83 da 3e
       0.324909 0.054428007 -0.019879915 0.4267828
000070 14 68 0d be 47 99 05 3e 05 b5 a3 bd 29 15 57 bd
       -0.13809234 0.13046752 -0.07993511 -0.052510414
000080 6d ca a4 3d cc 6a f4 3e 90 fc 88 3e 32 6e 7d be
       0.08046422 0.4773773 0.2675519 -0.24749067
000090 ba 67 29 3c 18 2c 88 3e d8 68 7c 3e 94 82 10 bf
       0.010339672 0.2659614 0.2464937 -0.56449246
0000a0 f1 ca 1f 3f 05 78 e0 3d 31 eb 70 be d7 49 50 3e
       0.6241904 0.10960392 -0.23527218 0.20340668
0000b0 8c 44 d8 3d fe 52 32 bd f6 be 7c 3e 7c a9 ad bc
       0.10559949 -0.04353618 0.24682221 -0.02119898
0000c0 ca 2c 03 be 31 95 e0 3d 06 3d 45 3e 41 08 89 be
       -0.12810054 0.10965956 0.1926156 -0.2676411
0000d0 5a d4 0c 3e 8d 77 99 3e 75 0e 92 3e c4 95 b5 3d
       0.1375288 0.29974023 0.28526655 0.08866456
0000e0 7c dd 82 3e 31 25 8e 3e 07 81 9d 3d 47 b0 33 3d
       0.25559604 0.2776275 0.07690626 0.043869283
0000f0 11 b3 0b 3f 9e d1 11 3f 86 ba a6 bd 72 66 b9 3e
       0.5457011 0.56960475 -0.08141045 0.36210972
000100 02 84 5a bc 33 0c e7 3e 5d 0c d4 3c 79 6b ad 3e
       -0.013337137 0.45126495 0.025884802 0.33871058
000110 2c e2 b1 3e 56 fb d0 3e 13 61 87 bd 3a 5a 35 3e
       0.34742868 0.40816754 -0.06610312 0.177102
000120 de 88 67 be 70 1e 89 3e c6 eb e5 bd 2e 24 ee bd
       -0.22610804 0.26781034 -0.11226611 -0.116279945
000130 07 0e cc be 5c b1 42 3e 56 8b 9e be 5e 53 4c 3e
       -0.39854452 0.1901297 -0.3096568 0.19953677
000140 7c aa bf 3e b7 6b 70 be 43 b0 92 3e c3 d4 b3 bc
       0.37434757 -0.2347859 0.28650102 -0.021952039
000150 75 55 ad 3d b8 e6 21 3d 6b 8a 2d 3e 05 16 fb 3d
       0.08463565 0.03952667 0.16947334 0.12260059
000160 90 6b 3c bb 52 71 1a be 77 e7 79 3e 11 9f 81 3c
       -0.0028750636 -0.15082291 0.24404703 0.01582292
000170 c7 fd 9c 3d bc af 19 be 94 7e d7 3d e4 67 8e be
       0.07665592 -0.15008444 0.1052219 -0.27813637
000180 a3 78 4b 3c 99 8f 74 3e 75 87 3e bd 78 3f 62 be
       0.012418899 0.23882903 -0.0465159 -0.22094524
000190 56 38 3e 3e a3 96 b7 3e b3 92 bf bd e0 7d bf bd
       0.18576178 0.35857114 -0.093541525 -0.093501806
0001a0 76 8f 59 bc 01 4b 0d 3b 10 ea c4 bc e8 9d 5b be
       -0.013278833 0.0021559598 -0.024037391 -0.21446955
0001b0 ca d2 82 3e 94 2d f4 3c b8 cd 7f 3e 13 82 b8 bd
       0.25551444 0.02980689 0.24980819 -0.09009185
0001c0 ac 20 a1 be 8d 5a dd 3d 97 10 3f 3d b3 5b 64 3e
       -0.3147024 0.10808287 0.04664668 0.22300605
0001d0 65 6d 05 bd 2b b8 e4 bd 78 e9 cd 3d 11 a8 9d 3e
       -0.03257503 -0.1116794 0.10054296 0.30792287
0001e0 a4 16 6d 3c 04 2e 28 3e 75 e1 bf 3d 08 d3 15 3e
       0.01447073 0.16423804 0.093691744 0.14631283
0001f0 88 c8 47 3c ca ca 9e bd 91 65 05 be 98 a7 75 3e
       0.0121938065 -0.07753523 -0.13027026 0.23989713
000200 1c 8a c0 be fd 9d 2c be f6 f2 01 bf 8d e8 37 3e
       -0.3760537 -0.16857143 -0.50761354 0.17959805
000210 85 67 9a 3e c2 da 24 3d a2 4a 33 3e 5c 66 67 be
       0.30157104 0.040247686 0.17508939 -0.22597641
000220 58 98 f5 3d 9b d5 9b 3d e9 9c 42 be 2b 6c 16 bf
       0.11991948 0.076091014 -0.19005169 -0.587588
000230 60 0f 75 3d 88 85 1c 3e ff 75 fc bd d9 26 48 3d
       0.059829116 0.15285313 -0.123271935 0.048865173
000240 ea 07 7d 3e 77 a9 4b 3d 5b b6 3c b9 7a 8f c1 bd
       0.2471005 0.04972216 -0.0001799701 -0.09451194
000250 06 8e 35 3e f9 19 21 3e 0d 10 c8 bd 73 1c a1 bd
       0.17729959 0.15732564 -0.097686864 -0.078667544
000260 81 b1 1d be bc 17 77 3d 47 88 6a be a6 64 8e 3e
       -0.15399744 0.06032537 -0.22903548 0.27811164
000270 f6 f8 b5 3e db c3 12 be 0b 91 b0 3e 9c 4b a3 3d
       0.35541505 -0.14332525 0.3448566 0.07973406
000280 c6 05 3e be 7f a4 96 3c 4b 3a 90 3d 64 94 44 be
       -0.1855689 0.018388985 0.070423685 -0.19197232
000290 bd 51 7a bd 1a e2 28 3e 25 27 2a 3e 40 55 0e 3f
       -0.061113108 0.16492501 0.16616495 0.5559883
0002a0 2b d2 b7 3d 0b 50 eb bd 9d d1 86 3a e4 a5 8c be
       0.08975633 -0.11489876 0.0010285858 -0.27470315
0002b0 21 a5 6d bd 77 87 9a be d5 42 cf 3d fb 53 a3 3d
       -0.058018807 -0.30181476 0.10120169 0.079750024
0002c0 bd 9f 23 3f 52 de 7a 3e d6 70 3d bd cd c6 6c bd
       0.63915616 0.24498871 -0.046250187 -0.05780678
0002d0 1e 52 6b 3e 36 9d 35 3e b6 3a 97 bd db 6c d7 3d
       0.22980544 0.17735752 -0.07384245 0.105188094
0002e0 45 a4 56 3e 7f 0e c0 be 00 76 4a bd dc e7 af bc
       0.20961101 -0.3751106 -0.04942894 -0.021472864
0002f0 c4 78 02 be 8e 7a 54 3e 61 c6 eb bd 34 be 18 3d
       -0.12741381 0.20749876 -0.11512447 0.037290767
000300 0f 4c 36 3f dc a0 c6 bd ac 5d 32 3e d9 ff 1b 3e
       0.71209806 -0.0969865 0.17418545 0.15234317
000310 b1 e3 16 3d 96 b3 22 3d 86 fb 5b 3e 88 87 3c 3e
       0.036838237 0.039722048 0.21482667 0.18411076
000320 b3 e6 e6 3e c4 5a 73 3e 87 a7 ea 3e f3 01 4c be
       0.45097885 0.23765093 0.45830938 -0.19922619
000330 38 08 0e bf ad a4 2a be 40 d8 ba bd 7e db a4 3e
       -0.5548129 -0.16664381 -0.09123278 0.3219871
000340 e3 95 60 3e 1f 90 04 3f 73 51 1a 3d 12 94 06 bc
       0.21932177 0.5178241 0.037675332 -0.008214014
000350 30 a9 3d be f6 59 13 be 10 8e 53 3e 4c 7f a2 bd
       -0.18521571 -0.14389786 0.20659661 -0.07934436
000360 67 c4 0f 3e 8a df 95 3d 9a f5 5b 3d b5 47 45 3e
       0.14039765 0.07318027 0.05370102 0.19265635
000370 1b 04 f4 3d e1 c7 cd 3d 74 ad 8b 3e 59 c6 a3 bd
       0.119148456 0.100478895 0.27280772 -0.07996816
000380 80 50 4d 3e f4 96 ba be e2 15 89 3e 3f 14 a2 bd
       0.2005024 -0.36443293 0.26774508 -0.07914018
000390 44 4a 39 be fe 77 82 3e 46 1d 58 3e 80 2e ea 3d
       -0.18094736 0.25482172 0.21104917 0.114346504
0003a0 d0 45 14 be ab 4e f9 bd d1 54 01 3f c7 bb 2f be
       -0.14479756 -0.12173208 0.50520045 -0.17161475
0003b0 ba 43 6f bd 9d ec ab be 98 b7 e0 be 6a 2c 3a be
       -0.0584142 -0.3357896 -0.4389007 -0.18181005
0003c0 b2 20 20 be 6e f4 42 3e d5 24 db 3d f7 57 3c 3e
       -0.15637472 0.19038555 0.107003845 0.18392931
0003d0 99 ba 5e be ff c8 f9 3d 20 c2 c6 be 63 de 9b bd
       -0.21750869 0.1219654 -0.3881998 -0.07610776
0003e0 4c f4 13 3e 10 2f f2 3d a0 f5 44 be d3 fd 93 3e
       0.1444866 0.11825383 -0.19234324 0.2890459
0003f0 ac b9 85 be 8b 4c 3c 3e f0 0c 67 3e ff fa ca bc
       -0.2611822 0.18388574 0.22563529 -0.024777887
